[
  {
    "task": "AudioLoadTask",
    "props": {
      "mdb": "simple_call_test/metadata.json",
      "dataset_name": "simple_call_test",
      "source": "simple_call_test/audio"
    }
  },
  {
    "task": "ExtractLabelPartsTask",
    "props": {
      "fixed_length": true,
      "dataset_name": null,
      "padded_left": true
    }
  },
  {
    "task": "NoiseReduceTask",
    "props": {
      "sensitivity": 6,
      "noise": [
        {
          "task": "AudioLoadTask",
          "props": {
            "mdb": "simple_call_test/metadata.json",
            "dataset_name": "simple_call_test",
            "source": "simple_call_test/audio"
          }
        },
        {
          "task": "SilentAudioTask",
          "props": {
            "max_length": 0.2004000000000019
          }
        },
        {
          "task": "NoiseProfileTask",
          "props": {}
        }
      ]
    }
  },
  {
    "task": "CreateSpectrogramTask",
    "props": {
      "sampling_rate": 500000,
      "x_pixels_per_sec": 5000,
      "height": 512,
      "window": "Ham"
    }
  },
  {
    "task": "ExtractHOGHWRecogTask",
    "props": {}
  },
  {
    "task": "KFoldSeparationTask",
    "props": {
      "k": 8,
      "val_bins": 1,
      "test_bins": 2,
      "n": 1
    }
  },
  {
    "task": "CreateNNModelTask",
    "props": {
      "name": "cnn_2d_sct_left_padded_nrs6xpps5000h512_hog_100",
      "model": {
        "name": "sequential",
        "layers": [
          {
            "class_name": "InputLayer",
            "config": {
              "batch_input_shape": [
                null,
                489,
                288,
                1
              ],
              "dtype": "float32",
              "sparse": false,
              "ragged": false,
              "name": "conv2d_input"
            }
          },
          {
            "class_name": "Conv2D",
            "config": {
              "name": "conv2d",
              "trainable": true,
              "batch_input_shape": [
                null,
                489,
                288,
                1
              ],
              "dtype": "float32",
              "filters": 32,
              "kernel_size": [
                3,
                3
              ],
              "strides": [
                1,
                1
              ],
              "padding": "valid",
              "data_format": "channels_last",
              "dilation_rate": [
                1,
                1
              ],
              "groups": 1,
              "activation": "relu",
              "use_bias": true,
              "kernel_initializer": {
                "class_name": "GlorotUniform",
                "config": {
                  "seed": null
                }
              },
              "bias_initializer": {
                "class_name": "Zeros",
                "config": {}
              },
              "kernel_regularizer": null,
              "bias_regularizer": null,
              "activity_regularizer": null,
              "kernel_constraint": null,
              "bias_constraint": null
            }
          },
          {
            "class_name": "MaxPooling2D",
            "config": {
              "name": "max_pooling2d",
              "trainable": true,
              "dtype": "float32",
              "pool_size": [
                2,
                2
              ],
              "padding": "valid",
              "strides": [
                2,
                2
              ],
              "data_format": "channels_last"
            }
          },
          {
            "class_name": "Conv2D",
            "config": {
              "name": "conv2d_1",
              "trainable": true,
              "dtype": "float32",
              "filters": 64,
              "kernel_size": [
                3,
                3
              ],
              "strides": [
                1,
                1
              ],
              "padding": "valid",
              "data_format": "channels_last",
              "dilation_rate": [
                1,
                1
              ],
              "groups": 1,
              "activation": "relu",
              "use_bias": true,
              "kernel_initializer": {
                "class_name": "GlorotUniform",
                "config": {
                  "seed": null
                }
              },
              "bias_initializer": {
                "class_name": "Zeros",
                "config": {}
              },
              "kernel_regularizer": null,
              "bias_regularizer": null,
              "activity_regularizer": null,
              "kernel_constraint": null,
              "bias_constraint": null
            }
          },
          {
            "class_name": "MaxPooling2D",
            "config": {
              "name": "max_pooling2d_1",
              "trainable": true,
              "dtype": "float32",
              "pool_size": [
                2,
                2
              ],
              "padding": "valid",
              "strides": [
                2,
                2
              ],
              "data_format": "channels_last"
            }
          },
          {
            "class_name": "Conv2D",
            "config": {
              "name": "conv2d_2",
              "trainable": true,
              "dtype": "float32",
              "filters": 64,
              "kernel_size": [
                3,
                3
              ],
              "strides": [
                1,
                1
              ],
              "padding": "valid",
              "data_format": "channels_last",
              "dilation_rate": [
                1,
                1
              ],
              "groups": 1,
              "activation": "relu",
              "use_bias": true,
              "kernel_initializer": {
                "class_name": "GlorotUniform",
                "config": {
                  "seed": null
                }
              },
              "bias_initializer": {
                "class_name": "Zeros",
                "config": {}
              },
              "kernel_regularizer": null,
              "bias_regularizer": null,
              "activity_regularizer": null,
              "kernel_constraint": null,
              "bias_constraint": null
            }
          },
          {
            "class_name": "MaxPooling2D",
            "config": {
              "name": "max_pooling2d_2",
              "trainable": true,
              "dtype": "float32",
              "pool_size": [
                2,
                2
              ],
              "padding": "valid",
              "strides": [
                2,
                2
              ],
              "data_format": "channels_last"
            }
          },
          {
            "class_name": "Conv2D",
            "config": {
              "name": "conv2d_3",
              "trainable": true,
              "dtype": "float32",
              "filters": 128,
              "kernel_size": [
                3,
                3
              ],
              "strides": [
                1,
                1
              ],
              "padding": "valid",
              "data_format": "channels_last",
              "dilation_rate": [
                1,
                1
              ],
              "groups": 1,
              "activation": "relu",
              "use_bias": true,
              "kernel_initializer": {
                "class_name": "GlorotUniform",
                "config": {
                  "seed": null
                }
              },
              "bias_initializer": {
                "class_name": "Zeros",
                "config": {}
              },
              "kernel_regularizer": null,
              "bias_regularizer": null,
              "activity_regularizer": null,
              "kernel_constraint": null,
              "bias_constraint": null
            }
          },
          {
            "class_name": "MaxPooling2D",
            "config": {
              "name": "max_pooling2d_3",
              "trainable": true,
              "dtype": "float32",
              "pool_size": [
                2,
                2
              ],
              "padding": "valid",
              "strides": [
                2,
                2
              ],
              "data_format": "channels_last"
            }
          },
          {
            "class_name": "Conv2D",
            "config": {
              "name": "conv2d_4",
              "trainable": true,
              "dtype": "float32",
              "filters": 256,
              "kernel_size": [
                3,
                3
              ],
              "strides": [
                1,
                1
              ],
              "padding": "valid",
              "data_format": "channels_last",
              "dilation_rate": [
                1,
                1
              ],
              "groups": 1,
              "activation": "relu",
              "use_bias": true,
              "kernel_initializer": {
                "class_name": "GlorotUniform",
                "config": {
                  "seed": null
                }
              },
              "bias_initializer": {
                "class_name": "Zeros",
                "config": {}
              },
              "kernel_regularizer": null,
              "bias_regularizer": null,
              "activity_regularizer": null,
              "kernel_constraint": null,
              "bias_constraint": null
            }
          },
          {
            "class_name": "MaxPooling2D",
            "config": {
              "name": "max_pooling2d_4",
              "trainable": true,
              "dtype": "float32",
              "pool_size": [
                2,
                2
              ],
              "padding": "valid",
              "strides": [
                2,
                2
              ],
              "data_format": "channels_last"
            }
          },
          {
            "class_name": "Flatten",
            "config": {
              "name": "flatten",
              "trainable": true,
              "dtype": "float32",
              "data_format": "channels_last"
            }
          },
          {
            "class_name": "Dense",
            "config": {
              "name": "dense",
              "trainable": true,
              "dtype": "float32",
              "units": 1024,
              "activation": "relu",
              "use_bias": true,
              "kernel_initializer": {
                "class_name": "GlorotUniform",
                "config": {
                  "seed": null
                }
              },
              "bias_initializer": {
                "class_name": "Zeros",
                "config": {}
              },
              "kernel_regularizer": null,
              "bias_regularizer": null,
              "activity_regularizer": null,
              "kernel_constraint": null,
              "bias_constraint": null
            }
          },
          {
            "class_name": "Dropout",
            "config": {
              "name": "dropout",
              "trainable": true,
              "dtype": "float32",
              "rate": 0.5,
              "noise_shape": null,
              "seed": null
            }
          },
          {
            "class_name": "Dense",
            "config": {
              "name": "dense_1",
              "trainable": true,
              "dtype": "float32",
              "units": 6,
              "activation": "softmax",
              "use_bias": true,
              "kernel_initializer": {
                "class_name": "GlorotUniform",
                "config": {
                  "seed": null
                }
              },
              "bias_initializer": {
                "class_name": "Zeros",
                "config": {}
              },
              "kernel_regularizer": null,
              "bias_regularizer": null,
              "activity_regularizer": null,
              "kernel_constraint": null,
              "bias_constraint": null
            }
          }
        ]
      },
      "prepare_args": {},
      "fit_args": null
    }
  },
  {
    "task": "TrainNNModelTask",
    "props": {
      "epochs": 100,
      "save_every": 100
    }
  }
]