[
  {
    "task": "AudioLoadTask",
    "props": {
      "mdb": "simple_call_test/metadata.json",
      "dataset_name": "simple_call_test",
      "source": "simple_call_test/audio"
    }
  },
  {
    "task": "DurationLengthFilter",
    "props": {
      "min_duration_length": 0.022
    }
  },
  {
    "task": "MinCountLabelFilter",
    "props": {
      "min_count": 50
    }
  },
  {
    "task": "ExtractLabelPartsTask",
    "props": {
      "fixed_length": false,
      "dataset_name": null,
      "padded_left": false
    }
  },
  {
    "task": "CreateSpectrogramTask",
    "props": {
      "sampling_rate": 500000,
      "width": 100,
      "window": "Ham"
    }
  },
  {
    "task": "ExtractHOGHWRecogTask",
    "props": {}
  },
  {
    "task": "KFoldSeparationTask",
    "props": {
      "k": 8,
      "val_bins": 1,
      "test_bins": 2,
      "n": 4
    }
  },
  {
    "task": "CreateNNModelTask",
    "props": {
      "name": "cnn_2d_sct_compressed_nrs0_hog_100_3d",
      "model": {
        "name": "sequential",
        "layers": [
          {
            "class_name": "InputLayer",
            "config": {
              "batch_input_shape": [
                null,
                43,
                24,
                12
              ],
              "dtype": "float32",
              "sparse": false,
              "ragged": false,
              "name": "conv2d_input"
            }
          },
          {
            "class_name": "Conv2D",
            "config": {
              "name": "conv2d",
              "trainable": true,
              "batch_input_shape": [
                null,
                43,
                24,
                12
              ],
              "dtype": "float32",
              "filters": 32,
              "kernel_size": [
                3,
                3
              ],
              "strides": [
                1,
                1
              ],
              "padding": "valid",
              "data_format": "channels_last",
              "dilation_rate": [
                1,
                1
              ],
              "groups": 1,
              "activation": "relu",
              "use_bias": true,
              "kernel_initializer": {
                "class_name": "GlorotUniform",
                "config": {
                  "seed": null
                }
              },
              "bias_initializer": {
                "class_name": "Zeros",
                "config": {}
              },
              "kernel_regularizer": null,
              "bias_regularizer": null,
              "activity_regularizer": null,
              "kernel_constraint": null,
              "bias_constraint": null
            }
          },
          {
            "class_name": "MaxPooling2D",
            "config": {
              "name": "max_pooling2d",
              "trainable": true,
              "dtype": "float32",
              "pool_size": [
                2,
                2
              ],
              "padding": "valid",
              "strides": [
                2,
                2
              ],
              "data_format": "channels_last"
            }
          },
          {
            "class_name": "Conv2D",
            "config": {
              "name": "conv2d_1",
              "trainable": true,
              "dtype": "float32",
              "filters": 64,
              "kernel_size": [
                3,
                3
              ],
              "strides": [
                1,
                1
              ],
              "padding": "valid",
              "data_format": "channels_last",
              "dilation_rate": [
                1,
                1
              ],
              "groups": 1,
              "activation": "relu",
              "use_bias": true,
              "kernel_initializer": {
                "class_name": "GlorotUniform",
                "config": {
                  "seed": null
                }
              },
              "bias_initializer": {
                "class_name": "Zeros",
                "config": {}
              },
              "kernel_regularizer": null,
              "bias_regularizer": null,
              "activity_regularizer": null,
              "kernel_constraint": null,
              "bias_constraint": null
            }
          },
          {
            "class_name": "MaxPooling2D",
            "config": {
              "name": "max_pooling2d_1",
              "trainable": true,
              "dtype": "float32",
              "pool_size": [
                2,
                2
              ],
              "padding": "valid",
              "strides": [
                2,
                2
              ],
              "data_format": "channels_last"
            }
          },
          {
            "class_name": "Flatten",
            "config": {
              "name": "flatten",
              "trainable": true,
              "dtype": "float32",
              "data_format": "channels_last"
            }
          },
          {
            "class_name": "Dense",
            "config": {
              "name": "dense",
              "trainable": true,
              "dtype": "float32",
              "units": 1024,
              "activation": "relu",
              "use_bias": true,
              "kernel_initializer": {
                "class_name": "GlorotUniform",
                "config": {
                  "seed": null
                }
              },
              "bias_initializer": {
                "class_name": "Zeros",
                "config": {}
              },
              "kernel_regularizer": null,
              "bias_regularizer": null,
              "activity_regularizer": null,
              "kernel_constraint": null,
              "bias_constraint": null
            }
          },
          {
            "class_name": "Dropout",
            "config": {
              "name": "dropout",
              "trainable": true,
              "dtype": "float32",
              "rate": 0.5,
              "noise_shape": null,
              "seed": null
            }
          },
          {
            "class_name": "Dense",
            "config": {
              "name": "dense_1",
              "trainable": true,
              "dtype": "float32",
              "units": 4,
              "activation": "softmax",
              "use_bias": true,
              "kernel_initializer": {
                "class_name": "GlorotUniform",
                "config": {
                  "seed": null
                }
              },
              "bias_initializer": {
                "class_name": "Zeros",
                "config": {}
              },
              "kernel_regularizer": null,
              "bias_regularizer": null,
              "activity_regularizer": null,
              "kernel_constraint": null,
              "bias_constraint": null
            }
          }
        ]
      },
      "prepare_args": {
        "new_dim_size": 12
      },
      "fit_args": null
    }
  },
  {
    "task": "TrainNNModelTask",
    "props": {
      "epochs": 100,
      "save_every": 100
    }
  }
]